ctfs/Buckeye/2021/rev/Neurotic/model.pth (torch, 1848 bytes, 7 tensors)

stack.0.weight f4 [8, 8]
00000000: 4f9d 2fbe eded e63d 2edd b23e faab 8c3e
00000010: 7218 e23d cee2 8b3c 0f3e ad3e 23f6 b4be
00000020: 3767 35be 056a 403e cd22 aabe e795 7d3e
00000030: ce67 f13c 45d6 88bd c1cc 863e 1587 ab3e
00000040: c8f1 3abd 7e1b 063d f811 7cbe 5804 aabe
00000050: 77c2 37be 6990 103e 995e 8bbd 5107 6f3e
00000060: 15a7 27bd 9dbc 213e 700a 863e 9b4e 1fbe
00000070: eccf 4abe 6306 3f3e a0bd d53d cf23 35be
00000080: ca67 a63e 1301 943e 7e64 d33d 05ce c03d
00000090: a1a6 773e eba1 f63c 11c1 413c 09c5 3cbe
000000a0: 6cc2 91bd 9c30 3ebe a08d 06be 5443 833e
000000b0: 375b 9cbd 9f91 413e dc9b 88be 58ea b2be
000000c0: 7e81 a8bc 7cb7 113e cf44 20bc 078a 7f3d
000000d0: e1de f7bd 33d9 0e3e c6a3 8fbe ebaf 6bbd
000000e0: ebec cb3d df84 28be a821 653e ba51 93be
000000f0: c6b5 f83d cdaf 18bd 8dc9 c13b 211d 91be
-0.17149852 0.112758495 0.34934372 0.27474958 0.11039819 0.017075922 0.3383641 -0.35344037
-0.17715155 0.18790443 -0.33229676 0.24764214 0.029468443 -0.06681494 0.2632809 0.33501497
-0.045640737 0.032741062 -0.2461623 -0.3320644 -0.17945276 0.14117588 -0.068051524 0.23342635
-0.040930826 0.15794607 0.26179838 -0.1555733 -0.19805878 0.1865478 0.10436559 -0.17689441
0.3250106 0.2890707 0.10321902 0.09414295 0.24184658 0.030106505 0.011825816 -0.18434538
-0.07117161 -0.1857323 -0.13139963 0.25637305 -0.07634585 0.18903206 -0.2668141 -0.34944415
-0.02056956 0.1423015 -0.00978203 0.062387493 -0.12103058 0.13950042 -0.28054637 -0.057540815
0.09957298 -0.16456936 0.2237612 -0.2877329 0.121440455 -0.03727703 0.0059139193 -0.28342536

stack.1.weight f4 [8, 8]
00000000: 4f9d 2fbe eded e63d 2edd b23e faab 8c3e
00000010: 7218 e23d cee2 8b3c 0f3e ad3e 23f6 b4be
00000020: 3767 35be 056a 403e cd22 aabe e795 7d3e
00000030: ce67 f13c 45d6 88bd c1cc 863e 1587 ab3e
00000040: c8f1 3abd 7e1b 063d f811 7cbe 5804 aabe
00000050: 77c2 37be 6990 103e 995e 8bbd 5107 6f3e
00000060: 15a7 27bd 9dbc 213e 700a 863e 9b4e 1fbe
00000070: eccf 4abe 6306 3f3e a0bd d53d cf23 35be
00000080: ca67 a63e 1301 943e 7e64 d33d 05ce c03d
00000090: a1a6 773e eba1 f63c 11c1 413c 09c5 3cbe
000000a0: 6cc2 91bd 9c30 3ebe a08d 06be 5443 833e
000000b0: 375b 9cbd 9f91 413e dc9b 88be 58ea b2be
000000c0: 7e81 a8bc 7cb7 113e cf44 20bc 078a 7f3d
000000d0: e1de f7bd 33d9 0e3e c6a3 8fbe ebaf 6bbd
000000e0: ebec cb3d df84 28be a821 653e ba51 93be
000000f0: c6b5 f83d cdaf 18bd 8dc9 c13b 211d 91be
-0.17149852 0.112758495 0.34934372 0.27474958 0.11039819 0.017075922 0.3383641 -0.35344037
-0.17715155 0.18790443 -0.33229676 0.24764214 0.029468443 -0.06681494 0.2632809 0.33501497
-0.045640737 0.032741062 -0.2461623 -0.3320644 -0.17945276 0.14117588 -0.068051524 0.23342635
-0.040930826 0.15794607 0.26179838 -0.1555733 -0.19805878 0.1865478 0.10436559 -0.17689441
0.3250106 0.2890707 0.10321902 0.09414295 0.24184658 0.030106505 0.011825816 -0.18434538
-0.07117161 -0.1857323 -0.13139963 0.25637305 -0.07634585 0.18903206 -0.2668141 -0.34944415
-0.02056956 0.1423015 -0.00978203 0.062387493 -0.12103058 0.13950042 -0.28054637 -0.057540815
0.09957298 -0.16456936 0.2237612 -0.2877329 0.121440455 -0.03727703 0.0059139193 -0.28342536

stack.2.weight f4 [8, 8]
00000000: 4f9d 2fbe eded e63d 2edd b23e faab 8c3e
00000010: 7218 e23d cee2 8b3c 0f3e ad3e 23f6 b4be
00000020: 3767 35be 056a 403e cd22 aabe e795 7d3e
00000030: ce67 f13c 45d6 88bd c1cc 863e 1587 ab3e
00000040: c8f1 3abd 7e1b 063d f811 7cbe 5804 aabe
00000050: 77c2 37be 6990 103e 995e 8bbd 5107 6f3e
00000060: 15a7 27bd 9dbc 213e 700a 863e 9b4e 1fbe
00000070: eccf 4abe 6306 3f3e a0bd d53d cf23 35be
00000080: ca67 a63e 1301 943e 7e64 d33d 05ce c03d
00000090: a1a6 773e eba1 f63c 11c1 413c 09c5 3cbe
000000a0: 6cc2 91bd 9c30 3ebe a08d 06be 5443 833e
000000b0: 375b 9cbd 9f91 413e dc9b 88be 58ea b2be
000000c0: 7e81 a8bc 7cb7 113e cf44 20bc 078a 7f3d
000000d0: e1de f7bd 33d9 0e3e c6a3 8fbe ebaf 6bbd
000000e0: ebec cb3d df84 28be a821 653e ba51 93be
000000f0: c6b5 f83d cdaf 18bd 8dc9 c13b 211d 91be
-0.17149852 0.112758495 0.34934372 0.27474958 0.11039819 0.017075922 0.3383641 -0.35344037
-0.17715155 0.18790443 -0.33229676 0.24764214 0.029468443 -0.06681494 0.2632809 0.33501497
-0.045640737 0.032741062 -0.2461623 -0.3320644 -0.17945276 0.14117588 -0.068051524 0.23342635
-0.040930826 0.15794607 0.26179838 -0.1555733 -0.19805878 0.1865478 0.10436559 -0.17689441
0.3250106 0.2890707 0.10321902 0.09414295 0.24184658 0.030106505 0.011825816 -0.18434538
-0.07117161 -0.1857323 -0.13139963 0.25637305 -0.07634585 0.18903206 -0.2668141 -0.34944415
-0.02056956 0.1423015 -0.00978203 0.062387493 -0.12103058 0.13950042 -0.28054637 -0.057540815
0.09957298 -0.16456936 0.2237612 -0.2877329 0.121440455 -0.03727703 0.0059139193 -0.28342536

stack.3.weight f4 [8, 8]
00000000: 4f9d 2fbe eded e63d 2edd b23e faab 8c3e
00000010: 7218 e23d cee2 8b3c 0f3e ad3e 23f6 b4be
00000020: 3767 35be 056a 403e cd22 aabe e795 7d3e
00000030: ce67 f13c 45d6 88bd c1cc 863e 1587 ab3e
00000040: c8f1 3abd 7e1b 063d f811 7cbe 5804 aabe
00000050: 77c2 37be 6990 103e 995e 8bbd 5107 6f3e
00000060: 15a7 27bd 9dbc 213e 700a 863e 9b4e 1fbe
00000070: eccf 4abe 6306 3f3e a0bd d53d cf23 35be
00000080: ca67 a63e 1301 943e 7e64 d33d 05ce c03d
00000090: a1a6 773e eba1 f63c 11c1 413c 09c5 3cbe
000000a0: 6cc2 91bd 9c30 3ebe a08d 06be 5443 833e
000000b0: 375b 9cbd 9f91 413e dc9b 88be 58ea b2be
000000c0: 7e81 a8bc 7cb7 113e cf44 20bc 078a 7f3d
000000d0: e1de f7bd 33d9 0e3e c6a3 8fbe ebaf 6bbd
000000e0: ebec cb3d df84 28be a821 653e ba51 93be
000000f0: c6b5 f83d cdaf 18bd 8dc9 c13b 211d 91be
-0.17149852 0.112758495 0.34934372 0.27474958 0.11039819 0.017075922 0.3383641 -0.35344037
-0.17715155 0.18790443 -0.33229676 0.24764214 0.029468443 -0.06681494 0.2632809 0.33501497
-0.045640737 0.032741062 -0.2461623 -0.3320644 -0.17945276 0.14117588 -0.068051524 0.23342635
-0.040930826 0.15794607 0.26179838 -0.1555733 -0.19805878 0.1865478 0.10436559 -0.17689441
0.3250106 0.2890707 0.10321902 0.09414295 0.24184658 0.030106505 0.011825816 -0.18434538
-0.07117161 -0.1857323 -0.13139963 0.25637305 -0.07634585 0.18903206 -0.2668141 -0.34944415
-0.02056956 0.1423015 -0.00978203 0.062387493 -0.12103058 0.13950042 -0.28054637 -0.057540815
0.09957298 -0.16456936 0.2237612 -0.2877329 0.121440455 -0.03727703 0.0059139193 -0.28342536

stack.4.weight f4 [8, 8]
00000000: 4f9d 2fbe eded e63d 2edd b23e faab 8c3e
00000010: 7218 e23d cee2 8b3c 0f3e ad3e 23f6 b4be
00000020: 3767 35be 056a 403e cd22 aabe e795 7d3e
00000030: ce67 f13c 45d6 88bd c1cc 863e 1587 ab3e
00000040: c8f1 3abd 7e1b 063d f811 7cbe 5804 aabe
00000050: 77c2 37be 6990 103e 995e 8bbd 5107 6f3e
00000060: 15a7 27bd 9dbc 213e 700a 863e 9b4e 1fbe
00000070: eccf 4abe 6306 3f3e a0bd d53d cf23 35be
00000080: ca67 a63e 1301 943e 7e64 d33d 05ce c03d
00000090: a1a6 773e eba1 f63c 11c1 413c 09c5 3cbe
000000a0: 6cc2 91bd 9c30 3ebe a08d 06be 5443 833e
000000b0: 375b 9cbd 9f91 413e dc9b 88be 58ea b2be
000000c0: 7e81 a8bc 7cb7 113e cf44 20bc 078a 7f3d
000000d0: e1de f7bd 33d9 0e3e c6a3 8fbe ebaf 6bbd
000000e0: ebec cb3d df84 28be a821 653e ba51 93be
000000f0: c6b5 f83d cdaf 18bd 8dc9 c13b 211d 91be
-0.17149852 0.112758495 0.34934372 0.27474958 0.11039819 0.017075922 0.3383641 -0.35344037
-0.17715155 0.18790443 -0.33229676 0.24764214 0.029468443 -0.06681494 0.2632809 0.33501497
-0.045640737 0.032741062 -0.2461623 -0.3320644 -0.17945276 0.14117588 -0.068051524 0.23342635
-0.040930826 0.15794607 0.26179838 -0.1555733 -0.19805878 0.1865478 0.10436559 -0.17689441
0.3250106 0.2890707 0.10321902 0.09414295 0.24184658 0.030106505 0.011825816 -0.18434538
-0.07117161 -0.1857323 -0.13139963 0.25637305 -0.07634585 0.18903206 -0.2668141 -0.34944415
-0.02056956 0.1423015 -0.00978203 0.062387493 -0.12103058 0.13950042 -0.28054637 -0.057540815
0.09957298 -0.16456936 0.2237612 -0.2877329 0.121440455 -0.03727703 0.0059139193 -0.28342536

stack.5.weight f4 [8, 8]
00000000: 4f9d 2fbe eded e63d 2edd b23e faab 8c3e
00000010: 7218 e23d cee2 8b3c 0f3e ad3e 23f6 b4be
00000020: 3767 35be 056a 403e cd22 aabe e795 7d3e
00000030: ce67 f13c 45d6 88bd c1cc 863e 1587 ab3e
00000040: c8f1 3abd 7e1b 063d f811 7cbe 5804 aabe
00000050: 77c2 37be 6990 103e 995e 8bbd 5107 6f3e
00000060: 15a7 27bd 9dbc 213e 700a 863e 9b4e 1fbe
00000070: eccf 4abe 6306 3f3e a0bd d53d cf23 35be
00000080: ca67 a63e 1301 943e 7e64 d33d 05ce c03d
00000090: a1a6 773e eba1 f63c 11c1 413c 09c5 3cbe
000000a0: 6cc2 91bd 9c30 3ebe a08d 06be 5443 833e
000000b0: 375b 9cbd 9f91 413e dc9b 88be 58ea b2be
000000c0: 7e81 a8bc 7cb7 113e cf44 20bc 078a 7f3d
000000d0: e1de f7bd 33d9 0e3e c6a3 8fbe ebaf 6bbd
000000e0: ebec cb3d df84 28be a821 653e ba51 93be
000000f0: c6b5 f83d cdaf 18bd 8dc9 c13b 211d 91be
-0.17149852 0.112758495 0.34934372 0.27474958 0.11039819 0.017075922 0.3383641 -0.35344037
-0.17715155 0.18790443 -0.33229676 0.24764214 0.029468443 -0.06681494 0.2632809 0.33501497
-0.045640737 0.032741062 -0.2461623 -0.3320644 -0.17945276 0.14117588 -0.068051524 0.23342635
-0.040930826 0.15794607 0.26179838 -0.1555733 -0.19805878 0.1865478 0.10436559 -0.17689441
0.3250106 0.2890707 0.10321902 0.09414295 0.24184658 0.030106505 0.011825816 -0.18434538
-0.07117161 -0.1857323 -0.13139963 0.25637305 -0.07634585 0.18903206 -0.2668141 -0.34944415
-0.02056956 0.1423015 -0.00978203 0.062387493 -0.12103058 0.13950042 -0.28054637 -0.057540815
0.09957298 -0.16456936 0.2237612 -0.2877329 0.121440455 -0.03727703 0.0059139193 -0.28342536

stack.6.weight f4 [8, 8]
00000000: 4f9d 2fbe eded e63d 2edd b23e faab 8c3e
00000010: 7218 e23d cee2 8b3c 0f3e ad3e 23f6 b4be
00000020: 3767 35be 056a 403e cd22 aabe e795 7d3e
00000030: ce67 f13c 45d6 88bd c1cc 863e 1587 ab3e
00000040: c8f1 3abd 7e1b 063d f811 7cbe 5804 aabe
00000050: 77c2 37be 6990 103e 995e 8bbd 5107 6f3e
00000060: 15a7 27bd 9dbc 213e 700a 863e 9b4e 1fbe
00000070: eccf 4abe 6306 3f3e a0bd d53d cf23 35be
00000080: ca67 a63e 1301 943e 7e64 d33d 05ce c03d
00000090: a1a6 773e eba1 f63c 11c1 413c 09c5 3cbe
000000a0: 6cc2 91bd 9c30 3ebe a08d 06be 5443 833e
000000b0: 375b 9cbd 9f91 413e dc9b 88be 58ea b2be
000000c0: 7e81 a8bc 7cb7 113e cf44 20bc 078a 7f3d
000000d0: e1de f7bd 33d9 0e3e c6a3 8fbe ebaf 6bbd
000000e0: ebec cb3d df84 28be a821 653e ba51 93be
000000f0: c6b5 f83d cdaf 18bd 8dc9 c13b 211d 91be
-0.17149852 0.112758495 0.34934372 0.27474958 0.11039819 0.017075922 0.3383641 -0.35344037
-0.17715155 0.18790443 -0.33229676 0.24764214 0.029468443 -0.06681494 0.2632809 0.33501497
-0.045640737 0.032741062 -0.2461623 -0.3320644 -0.17945276 0.14117588 -0.068051524 0.23342635
-0.040930826 0.15794607 0.26179838 -0.1555733 -0.19805878 0.1865478 0.10436559 -0.17689441
0.3250106 0.2890707 0.10321902 0.09414295 0.24184658 0.030106505 0.011825816 -0.18434538
-0.07117161 -0.1857323 -0.13139963 0.25637305 -0.07634585 0.18903206 -0.2668141 -0.34944415
-0.02056956 0.1423015 -0.00978203 0.062387493 -0.12103058 0.13950042 -0.28054637 -0.057540815
0.09957298 -0.16456936 0.2237612 -0.2877329 0.121440455 -0.03727703 0.0059139193 -0.28342536
